isaacgymenvs/MorphingLander2.onnx (onnx, 737263 bytes, 12 tensors)

model._model.a2c_network.sigma f4 [4]
000000 b8 fb ac be 07 75 7d be cf c7 13 be 56 fd 1b be
       -0.33785796 -0.24751674 -0.1443169 -0.15233359

model._model.a2c_network.actor_mlp.0.bias f4 [512]
000000 0f 59 18 be fe 97 17 bd e2 12 09 bc 54 33 56 bc
       -0.14877723 -0.037010185 -0.008366318 -0.013073761
000010 6b 74 7a be 64 57 4b be 18 b8 bd bd f6 42 a0 bd
       -0.24458472 -0.19857556 -0.09263629 -0.07825272
000020 3c f4 fc bc 30 03 7b bc a2 af 3a 3e 4d 60 4b 3e
       -0.030878179 -0.015320584 0.18231061 0.19860955
000030 03 f6 b3 3c f7 1b b8 3d 51 af 51 bd 35 07 2a bd
       0.021967893 0.08989709 -0.051192585 -0.04151078
000040 43 da a5 3d 2a ba 62 3e 0f 60 7a be 1c 74 00 be
       0.08098271 0.22141328 -0.24450706 -0.12544292
000050 d4 7a c1 3c 6a 19 5e bd 99 35 2f be 6a 5a 08 3e
       0.02361814 -0.054223455 -0.1711029 0.1331574
000060 be 3d 9b 3c 3b 9e 93 bd e2 64 33 3e 6c 90 97 bd
       0.01895034 -0.072079144 0.17518952 -0.07400593
000070 03 9e f3 bc c1 0c 5a bc 58 a1 29 3e 75 34 39 3c
       -0.029738432 -0.013308705 0.16565454 0.011304011
000080 43 a6 2a 3d 77 40 e5 3d 70 42 41 3e ad 19 0a be
       0.041662466 0.11193936 0.18873 -0.13486357
000090 9e ca 4d bd 08 6d 1e 3e 21 ef 87 3e a9 2c a6 bd
       -0.05024206 0.1547128 0.26549628 -0.08113987
0000a0 c9 98 ed bc 96 2a 64 3e e9 95 78 3d a9 33 73 3d
       -0.029003518 0.2228187 0.06068984 0.05937544
0000b0 3c 62 8a bc 24 30 05 bd fb fa 11 3b ea 28 52 3e
       -0.016892545 -0.032516614 0.002227484 0.2052342
0000c0 f1 19 05 3e 68 15 72 be 3f 4c ac be 12 3c 0f 3e
       0.12998177 -0.23640978 -0.3365192 0.13987759
0000d0 4d 33 24 be de 4e 7a 3e ca d3 8b bb 84 1c 20 3e
       -0.16035195 0.24444148 -0.0042671906 0.15635878
0000e0 5b 10 8c 3a 8e 28 18 be fe e0 16 be 7b 7f 6e bd
       0.0010686027 -0.1485922 -0.14734265 -0.058227044
0000f0 a5 47 91 3d b3 db 8c 39 76 f3 b5 3d a7 6e 4d be
       0.07093743 0.0002686657 0.08884327 -0.20061742
000100 e0 94 88 3d eb 9b 8d bc 25 26 cb 3d 79 b6 7d 3e
       0.06669021 -0.017286262 0.09919385 0.24776639
000110 c5 b6 25 3c f8 63 31 be 68 22 01 be 61 ff 73 3b
       0.010114376 -0.17323291 -0.12610781 0.0037231075
000120 60 b7 27 3e 07 e1 25 bd 14 1c 8c 3d b7 f8 9c bd
       0.16378546 -0.040497806 0.06841293 -0.07664626
000130 bc 28 e0 3d 5d 4a 55 3e cd db 18 bd 1d ea 04 3d
       0.109452695 0.20829149 -0.037318993 0.03244983
000140 bb a8 0e be 93 65 92 3d 46 4c 16 bc 02 e7 97 3e
       -0.13931553 0.0714828 -0.009173458 0.29668432
000150 1e 9a 9d 3e 44 ae 6b be f6 22 a2 bc a3 6d f1 3c
       0.30781645 -0.23015696 -0.019792061 0.029471224
000160 1a 0f 9f bd b8 32 53 3e 1d 76 e6 bd a5 05 9b 3d
       -0.07766552 0.20624816 -0.11252997 0.07569436
000170 e3 1c 01 bd 83 bd b5 3d a3 29 0a 3e c4 22 26 3e
       -0.03152169 0.08874037 0.13492446 0.162242
000180 d2 6e 09 3e 77 f0 42 3e 43 f9 c3 bc cc 51 99 bd
       0.13421181 0.19037043 -0.023922568 -0.07486305
000190 76 f3 70 3b e8 b9 ac 3d 0f 54 fd bd a6 59 c0 3d
       0.0036766208 0.08433896 -0.123695485 0.09392099
0001a0 17 63 af bd 04 b1 21 3d a4 da 4b 3e 05 63 e8 3d
       -0.08563822 0.039475456 0.19907624 0.113470115
0001b0 f6 75 e8 bc 2f fa 81 3d 62 e3 77 3b 29 af 20 bd
       -0.02837656 0.06346547 0.003782474 -0.039229546
0001c0 ad 21 b3 bd 95 c6 e9 bd 82 82 f0 bd 2d e9 8a 3d
       -0.087466575 -0.1141483 -0.117436424 0.06782756
0001d0 11 db 3e be 17 97 bd 3d 91 91 e9 3c b9 26 78 bd
       -0.18638255 0.09257334 0.028511794 -0.060583804
0001e0 26 6a 22 bd 36 44 1d 3e 77 ac b0 3c e1 e6 a0 3d
       -0.039652012 0.15358052 0.021566613 0.07856537
0001f0 7e d6 ad bc 3b f8 9d 3d b6 5b 47 be 2e d8 ef 3d
       -0.021220442 0.07713362 -0.19468579 0.11711155
000200 e3 6c d5 bd 01 e7 34 bd 7e 6e f4 bc 23 8d f8 bd
       -0.10421159 -0.044165615 -0.029837843 -0.12136295
000210 d4 1a 67 3d 07 4d d1 3b 9e 32 7c 3d 50 cf 88 3e
       0.05642207 0.006387356 0.06157171 0.26720667
000220 34 0d 0e 3d 24 1a e6 3d b3 31 f0 bd b8 1b cb bd
       0.03468056 0.11235455 -0.117282294 -0.09917396
000230 4b 7c 07 3d 61 66 0c be 54 4b 0a 3d 1e ac e7 bd
       0.03307752 -0.1371093 0.033763245 -0.113121256
000240 4c f2 f1 bd 4b 1e 1b 3d 66 f3 0c 3e e8 b1 1d 3e
       -0.118137926 0.037870687 0.13764724 0.15399897
000250 70 70 70 3d 36 80 b5 3d b7 7f 0b be 78 d5 21 bd
       0.05870098 0.08862345 -0.13622938 -0.03951022
000260 b3 43 94 3e 06 2e bc bd 9b 4b 9f bb 39 e2 7d bd
       0.289579 -0.09188466 -0.004861308 -0.06198332
000270 0a 87 d5 bc 3e 2d 19 3b 2d b3 18 bc 21 06 0a be
       -0.026065368 0.0023372914 -0.009320063 -0.134789
000280 12 2c 61 be f8 77 35 3e 4a 63 e5 3d 9e 8f 63 3c
       -0.21989468 0.17721546 0.112005785 0.0138892215
000290 7a 4c 0a 38 aa 60 96 bd 38 67 a6 bc 77 d2 82 3e
       3.297299e-05 -0.07342656 -0.02031289 0.25551197
0002a0 42 4d 69 be 76 7a 14 bd 4c 47 18 bd 35 3c 98 3c
       -0.22783378 -0.0362496 -0.03717737 0.018583396
0002b0 f6 6b e7 3c b0 a3 19 bc b8 5c 42 3e 5d 20 30 bd
       0.028249722 -0.009377405 0.18980682 -0.042999614
0002c0 e5 e3 1d 3e 48 b1 19 bd 9e 7e d0 bd 4e 91 19 be
       0.15418966 -0.037522584 -0.101804 -0.14996836
0002d0 5f 5f ea 3c bd 63 8b 3d 41 44 a9 be 25 89 7d bc
       0.02860993 0.06806133 -0.33059886 -0.015474592
0002e0 6c b3 30 bd 9e 7a 5b 3d e7 93 71 3e 66 d6 99 3d
       -0.04313986 0.053583734 0.23591577 0.075115964
0002f0 b6 46 16 3d 8e f5 91 3d 04 41 e7 3c d7 29 4d 3e
       0.03668853 0.07126914 0.028229244 0.20035492
000300 b5 bc 25 3e a5 2f 85 3d 53 ee 2e 3e 26 61 97 3d
       0.16185267 0.06503228 0.17083101 0.073915765
000310 0e 34 ab bc 61 0c 55 3e bf 74 f0 3c e3 19 bd 3d
       -0.020898845 0.20805503 0.029352544 0.09233453
000320 2d f4 e9 bd 74 e7 bc bd ef 96 61 be 2d 57 f7 3c
       -0.11423526 -0.09223834 -0.22030233 0.030192936
000330 6e 58 7a 3c aa 12 6c 3b a5 ff 74 3c 9d 95 c0 bb
       0.015279872 0.0036021867 0.0149535285 -0.0058772103
000340 0e bf 11 bd 65 3b c2 3d 16 ef a0 be 69 ae 3f 3e
       -0.035582595 0.09483985 -0.31432408 0.18718876
000350 83 7c 94 3d 03 04 84 be 2b b6 1e 3c 26 32 9c bc
       0.07250311 -0.2578431 0.009686987 -0.019066881
000360 6e 28 d7 3d 96 ba 58 be 60 88 b1 bd ee 39 12 3d
       0.10505758 -0.21164927 -0.086685896 0.035699777
000370 71 ba d0 3d ff 88 5a 3c d5 fe 65 3d 33 4f 76 be
       0.10191811 0.0133383265 0.05615123 -0.2405365
000380 16 12 09 3e ee a7 84 3d d9 c2 ae bd 10 ce 45 bd
       0.13385805 0.064773425 -0.08533258 -0.04829222
000390 77 d8 4e 3d b9 dc ac 3d 6b d8 fb bc 89 5e 20 3d
       0.050499406 0.08440537 -0.030742845 0.039152656
0003a0 cf 11 35 3e 99 68 da 3d c3 2f f2 bc a7 8a cd bd
       0.17682575 0.10664482 -0.02956379 -0.100362115
0003b0 6b 1c 05 be b0 f6 8e 3d 68 6e e2 bd 5e 9b 35 bd
       -0.12999122 0.06980646 -0.110562146 -0.044337623
0003c0 fb 05 bc be df f3 26 3d c8 32 c2 bd 3b 47 21 3d
       -0.36723313 0.040759917 -0.09482342 0.03937457
0003d0 f3 d3 6d bd fb 65 59 bd d0 43 ac bc 3e 6f b5 3c
       -0.05806346 -0.05307577 -0.02102843 0.022147771
0003e0 90 6b 1c 3e fa 2e f9 bc 4b e2 57 bc cb b6 60 3d
       0.15275407 -0.030417908 -0.013176511 0.054861825
0003f0 88 8f a2 3d 89 ab 61 bd d1 b0 3e be 25 27 3f 3e
       0.07937533 -0.05509523 -0.18622138 0.18667276

model._model.a2c_network.actor_mlp.0.weight f4 [512, 14]
000000 c1 90 06 bd 6f 76 93 3d 58 46 5e 3e f7 50 80 3d
       -0.03285289 0.07200324 0.21706522 0.06265443
000010 25 1e 78 be b9 c2 b9 3d 72 d7 49 3b fe e0 09 be
       -0.24230249 0.090703435 0.0030798581 -0.13464734
000020 54 18 20 be 78 e5 9e 3e db cc 2f be 3c d9 2b be
       -0.1563428 0.31034446 -0.1716799 -0.16782087
000030 32 cb a9 3c bc d4 19 be b0 1d 80 3b 4d 6b 86 bc
       0.020726774 -0.15022558 0.003909789 -0.016408587
000040 55 ce 66 3e b9 95 e2 bc cb 1f ca 3d 02 3d 03 bd
       0.22539647 -0.027659284 0.09869345 -0.032040603
000050 e0 b0 b7 bd 95 ad 57 3d 81 dc 99 bd 82 f2 d2 3e
       -0.08969283 0.052655775 -0.07512761 0.41200644
000060 61 70 ba bc 44 34 19 bd 91 12 db bc 59 89 f1 3c
       -0.022758665 -0.03740336 -0.026742252 0.029484438
000070 b9 a1 a7 3d e2 ce 7d bc 91 33 15 bd 42 93 b7 bd
       0.08185143 -0.015491219 -0.03642613 -0.08963634
000080 ef 02 00 bd 3a 89 11 bd e4 96 57 3c a4 99 85 bd
       -0.031252798 -0.03553126 0.013158534 -0.06523445
000090 52 98 08 be ad 22 21 bb c9 ba 10 bd ef 82 48 3d
       -0.13339356 -0.0024587319 -0.035334382 0.048952993
0000a0 b4 9b 67 3d 38 67 f2 bc 43 63 4f 3c cb e1 b6 b6
       0.056544974 -0.029590234 0.012657943 -5.4503084e-06
0000b0 f3 ac fa 3d 77 45 c5 3b ce b7 91 3c ed ba 3e 3c
       0.12240019 0.0060202437 0.01778784 0.011641246
0000c0 10 1f 0f 3d 4b 71 24 bd 55 e4 66 bd 0f 31 6d 3c
       0.034941733 -0.040147107 -0.0563701 0.0144770285
0000d0 66 ae f9 bc ed 70 c4 3a 71 68 13 bd a9 57 6f bd
       -0.030478667 0.0014987268 -0.035988275 -0.05843321
0000e0 2f bb 5a 3e a1 e5 8c 3e a8 91 9d 3e 67 dd bc be
       0.21360467 0.27518943 0.3077519 -0.36887667
0000f0 34 e6 97 be 5f a6 86 be 24 c9 3a be 4a e4 9d 3d
       -0.2966782 -0.26298806 -0.18240792 0.07709558
000100 f3 03 0a 3e 23 11 84 3e 09 5c 3a be fd c9 45 be
       0.13478069 0.25794324 -0.18199171 -0.19315334
000110 d8 4b 21 3c 18 c9 57 be 43 1b 44 3d 20 6c 14 3e
       0.009844743 -0.21072805 0.04787756 0.14494371
000120 e3 ff 74 3e ca dc df be 90 80 92 be 2f 4e c0 3d
       0.23925738 -0.43723136 -0.2861371 0.09389912
000130 e8 a7 52 3d f8 49 8a bd b1 c9 8e 3e 59 e1 8b 3e
       0.05142966 -0.0675239 0.27888253 0.27320364
000140 d7 03 99 be af 72 5b be 51 f9 e0 3d 4b 1b 15 be
       -0.29885742 -0.21430467 0.10985053 -0.14561193
000150 d7 36 ca ba 27 80 03 bd 02 ba 9e be 8e 24 4f 3d
       -0.001542772 -0.032104637 -0.31001288 0.05057197
000160 da a7 7d 3d 2a 77 b0 bd 7f 9a 53 bd 2b c9 fc 3b
       0.061927654 -0.08616479 -0.05166101 0.007714411
000170 4f 52 cc bc 4e ed 23 be d2 31 a9 bd 45 38 82 bd
       -0.024941592 -0.16008493 -0.082614556 -0.06358389
000180 f2 3d 20 3e 76 e2 05 bc 26 96 b0 3c 9d d1 6f be
       0.1564863 -0.008171668 0.021555971 -0.23419805
000190 d5 c3 ca bd 95 09 df bd 9e 31 22 3d 9e 6f 4c be
       -0.09900633 -0.108904995 0.0395981 -0.19964454
0001a0 9a 85 9e be c0 f7 5c bd 94 df c7 3b ad 7b 23 be
       -0.30961305 -0.05394721 0.0060996506 -0.15965147
0001b0 bd 4b 1f be 9f d6 73 be cd a6 1c be 60 a7 13 be
       -0.15556236 -0.2381234 -0.15298004 -0.14419317
0001c0 3e 14 19 3c 5b c9 88 be 6f e4 80 3e d4 d9 a7 bd
       0.009343205 -0.26716122 0.2517428 -0.08195844
0001d0 b3 1f 72 3e 7d 09 e3 3d 81 a6 90 be 26 d9 22 3e
       0.23644905 0.11085794 -0.28252032 0.15903148
0001e0 8a 2d 8b 3d 96 58 71 3d 95 71 03 be 47 aa 60 bd
       0.06795795 0.058922373 -0.12836297 -0.05484989
0001f0 b1 4d 8e 3c e5 1f 71 3c 5f 14 e7 bc ee 35 8b bb
       0.01737103 0.014717077 -0.028207956 -0.0042483723
000200 6e 35 84 3e 62 b7 d0 bc 40 eb 8d bc c5 12 b7 3d
       0.25822014 -0.025478069 -0.01732409 0.08939127
000210 af 36 2a 3c 82 ba 6c 3d 57 9a 47 ba 99 93 e4 bd
       0.010389014 0.057795055 -0.0007614246 -0.111609645
000220 f6 7d 7f 3c be 49 91 3d a4 7d 8e bd 38 be 3b be
       0.015593996 0.07094143 -0.06957558 -0.18334281
000230 24 51 83 3e 87 71 10 be f9 df 72 3d 91 2f f6 3c
       0.25647843 -0.14105807 0.05929563 0.030051978
000240 08 e3 63 3d 47 2e 2d be bd ee e9 3e a0 d5 bd bc
       0.055636436 -0.16912185 0.45689955 -0.023173153
000250 95 6e 5e 3e 43 0e 64 be f7 d8 84 3d be 80 d8 bc
       0.21721871 -0.22271065 0.06486695 -0.026428577
000260 b6 48 6e bd 5b 72 31 3e 20 60 10 3d 41 88 a9 bd
       -0.05817481 0.1732878 0.035247922 -0.082779415
000270 09 73 de bc db f0 75 bd 72 b4 1f 3d d7 13 d8 bd
       -0.027154462 -0.06004415 0.038990445 -0.10550659
000280 29 1e ba be ef f3 7b bd b5 7e 30 3d 86 06 8e 3c
       -0.36351135 -0.06151193 0.043089587 0.017337095
000290 31 56 86 3d 0a 24 e2 bd 15 fd 31 bd 3c 54 1d 3e
       0.065594085 -0.1104203 -0.04345425 0.15364164
0002a0 83 23 f8 3c b6 17 65 3c b3 f4 94 bb 66 1b cf 3c
       0.03029037 0.013982704 -0.004545772 0.02528162
0002b0 2d 4f 0e bb fd ad 5d 3c 32 6e 6f 3d 41 1e 60 3d
       -0.0021714673 0.013530252 0.0584547 0.054716352
0002c0 1e e4 24 ba ea 88 d6 bb 2c 9c bf bb 07 f8 78 bc
       -0.00062900956 -0.006547083 -0.0058474746 -0.015195853
0002d0 9e aa 82 3c 91 b4 ac 3a 18 69 ca 3c b2 7c a7 3c
       0.015950497 0.0013176372 0.024708316 0.020445202
0002e0 99 32 be 3d 6a c2 3c 3c ab 38 94 bd c2 53 65 bd
       0.092869945 0.011520961 -0.07237371 -0.05598808
0002f0 e8 51 c8 bd f1 b9 45 3d 14 44 2a 3d c2 bf 9d bd
       -0.097812474 0.04827303 0.04156883 -0.077025905
000300 ef 28 e4 3c 14 92 91 3d f6 f8 a9 3d a2 c9 27 bc
       0.02785155 0.0710794 0.08299439 -0.010240944
000310 a5 f7 bc 3c e5 d5 86 3c 8d 7d 30 be e0 d0 a6 bc
       0.023067305 0.016459415 -0.17235394 -0.020363271
000320 8a a3 1b be db 78 98 3d ba 83 7f 3d bb ce 1c 3c
       -0.15199104 0.07444926 0.062381484 0.009570773
000330 df d8 10 3a 1e d2 e0 bd b8 85 09 bc d5 4d db 3d
       0.00055254804 -0.10977577 -0.008393697 0.10708205
000340 5c 09 6b bd 2a d5 5c bd 13 3f 25 bd de 58 3a 3d
       -0.057381973 -0.053914227 -0.040343355 0.045494907
000350 47 5d 83 3e af 70 57 3d df f4 b9 bc fe 7d ea bd
       0.25657102 0.052597698 -0.022699771 -0.11449812
000360 9d c8 4d be 7c 51 f3 3d 49 fa 3a 3d 0d 5f 8b 3e
       -0.20096059 0.11880776 0.045648847 0.27220955
000370 d0 8e 5f 3d 0d d6 86 bc d8 ee 43 bd 30 95 b4 bc
       0.054579556 -0.01645949 -0.0478352 -0.022043794
000380 32 e6 31 bd 0e 07 8f bd 68 2b 85 3e 21 90 d2 bd
       -0.043432422 -0.069837674 0.2600968 -0.10281397
000390 91 ab cc bd 93 3e af bd cf e0 58 be 78 1f 0f be
       -0.09993661 -0.08556857 -0.21179508 -0.13976848
0003a0 c8 20 5f be 58 bb 9b bb ac 47 be bd ea 61 f9 3d
       -0.21789849 -0.0047525577 -0.09291014 0.12176879
0003b0 54 ad af 3d 36 8f 0e be 2e 01 94 bc 96 e4 16 be
       0.085779816 -0.13921818 -0.018066969 -0.14735636
0003c0 ac f6 e9 bd c7 9b 4e be d6 22 c8 3d 68 4d 84 be
       -0.11424002 -0.20176612 0.097722694 -0.25840306
0003d0 55 3f 78 3d b9 41 a7 ba 87 43 0b 3e bf d0 35 be
       0.060607273 -0.0012760676 0.13599978 -0.17755412
0003e0 6f d3 39 3e 48 ae 12 be 93 2c 0e 3e b1 db 6f 3e
       0.18147062 -0.14324296 0.13884191 0.2342365
0003f0 33 38 2e bd 1a b0 a0 bc 59 bd aa 3d e3 4a 4e be
       -0.042534065 -0.019615222 0.083368964 -0.20145755

model._model.a2c_network.actor_mlp.2.bias f4 [256]
000000 8a 37 89 3b 4e 9a a3 bd 27 88 0a be 3f 95 e5 bd
       0.004187529 -0.07988416 -0.135285 -0.11210107
000010 3c 4e b4 bd 34 91 75 be c7 d8 6a bd 22 e6 2c bc
       -0.088039845 -0.23981172 -0.05733564 -0.010552915
000020 56 a3 bf bd 5d e2 3b be 47 8b b7 3c 66 1c 12 bd
       -0.09357326 -0.1834807 0.02240528 -0.035671614
000030 8e 63 02 be c6 7f 2c be c0 5c b0 bc 45 c2 0d be
       -0.1273329 -0.16845617 -0.021528602 -0.13843639
000040 83 c5 ee bd e0 79 b7 bd c7 7a c7 bd f3 2f 26 be
       -0.11658766 -0.08958793 -0.09740215 -0.16229229
000050 97 2e 4f be 82 4c 02 be e3 98 29 be ca 8d 79 bd
       -0.20232616 -0.12724498 -0.16562228 -0.060926236
000060 39 de 32 3c 5d d9 66 be f2 06 e6 bd 4a 6e 2b be
       0.01091724 -0.22543855 -0.112317935 -0.1674129
000070 17 79 a4 be b9 0b e9 3c f2 57 e8 be d7 a7 84 be
       -0.32123634 0.028447973 -0.45379597 -0.25909302
000080 8b a8 b5 bc 4d a7 4d bd 21 a5 90 bd cd c1 49 be
       -0.022175094 -0.05020838 -0.07062746 -0.19702835
000090 0f a0 03 be b5 55 e2 bc b6 e7 6c be 4b a3 52 be
       -0.12854026 -0.027628759 -0.23135266 -0.20570104
0000a0 cf 35 26 be 0d b7 16 be 41 45 d8 bd 2f ee 2e be
       -0.16231464 -0.14718266 -0.10560084 -0.17083047
0000b0 ed e8 11 be b1 e4 64 be db 21 1f bd 5b 85 16 be
       -0.1424901 -0.22352864 -0.038850646 -0.14699309
0000c0 01 0d b3 3d a5 f4 b4 bd 52 ad 96 3d 74 6f 82 bc
       0.08742715 -0.08835725 0.07357277 -0.015922286
0000d0 d8 d2 27 3e 4c c9 5e be cc ef 93 be 9f 45 77 be
       0.16389024 -0.21756476 -0.28893888 -0.24147652
0000e0 dd 7b 23 be fc eb 0e be 34 25 c1 bd 5f f9 3c bd
       -0.15965219 -0.13957208 -0.09430924 -0.046136256
0000f0 b6 0c b3 bd e3 c0 be be 06 b7 f2 bd c8 98 c6 bd
       -0.08742659 -0.37256536 -0.11851315 -0.096971095
000100 b5 29 0f bd 7b 4e d0 bc 5d 85 33 bf 0a 32 4e be
       -0.034951884 -0.025428047 -0.7012537 -0.20136276
000110 df 4e ec bd c9 4a 4a be ef 63 3c be 57 27 9b bd
       -0.11538481 -0.19755091 -0.18397497 -0.07575863
000120 56 6a b6 bd 27 82 aa bd 7e 16 ef be b4 11 c2 b9
       -0.08907001 -0.08325606 -0.46696848 -0.00037015753
000130 a1 66 13 be c6 bf ee be 05 56 1f 3e 83 53 cb bd
       -0.14394619 -0.46630687 0.15560158 -0.09928038
000140 6f 15 01 be 57 fc a3 bd 90 83 0f be d6 c2 61 bd
       -0.12605833 -0.080071144 -0.14015031 -0.05511745
000150 55 02 7d be 93 90 d0 bd 7c c8 0f be 5a 78 5d be
       -0.24707921 -0.10183825 -0.14041322 -0.21627942
000160 2b ac fc bc 8a d4 53 be 85 36 4f 3d 36 c5 d0 bc
       -0.030843815 -0.20686546 0.050589103 -0.025484663
000170 40 86 37 bd bb c9 1b bd 07 13 f5 be 5c af c3 bb
       -0.044805765 -0.038034182 -0.4786608 -0.005971832
000180 10 0f d7 bd 24 27 09 3b ae 70 f4 bd 79 6e c0 bc
       -0.1050092 0.002092787 -0.119355544 -0.023490177
000190 10 6e ef be 96 24 e4 bc e7 f2 6d be 42 e8 28 be
       -0.4676366 -0.027849477 -0.23237191 -0.1649485
0001a0 5e f0 48 be 3a d9 06 be 8e cf 29 bc 78 49 0e be
       -0.19622943 -0.13168803 -0.010364426 -0.13895214
0001b0 7f 9a 19 be 2c 88 be be fb 15 31 be e6 35 df bd
       -0.15000342 -0.37213266 -0.17293541 -0.10898952
0001c0 d0 eb f8 3c af dd 2d be 2b ed d7 bc 8e 73 71 be
       0.030385882 -0.16979097 -0.026358208 -0.23579237
0001d0 1c 48 21 be 1a 0d 6c bd 6d df 74 3d b5 c2 9f bd
       -0.15750164 -0.057629682 0.059783388 -0.07800809
0001e0 e7 b5 28 3d e8 c2 56 3d ae 38 8b bd f9 95 8e 3d
       0.0411891 0.05243197 -0.0679792 0.06962199
0001f0 c2 bd 87 bd e2 26 02 be 59 10 40 be ce fd 49 be
       -0.0662799 -0.12710145 -0.18756236 -0.19725725
000200 1a 00 c9 bd 52 50 d4 bc b3 bf 50 bd 2f 54 fa bd
       -0.098144725 -0.025917206 -0.05096407 -0.12223088
000210 02 a6 23 be c8 b1 76 bd 54 e6 42 be 3b 2d 96 bc
       -0.15981296 -0.06022814 -0.19033176 -0.018332114
000220 39 02 f0 bd 5c 21 a9 3c 5e e5 6c be ff 04 99 be
       -0.11719174 0.02064579 -0.23134372 -0.29886624
000230 18 c6 cc 3c a2 9e 21 be 56 e4 c9 bd 3c bf 82 be
       0.024996802 -0.1578317 -0.09858005 -0.25536525
000240 16 d4 5f bd 09 d7 d0 be 25 60 28 bd 25 d4 1d be
       -0.05464562 -0.4078906 -0.041107316 -0.15412958
000250 6a 87 e6 be 9b f5 16 bc 9e 9c 2f be 90 4d 1e be
       -0.45025188 -0.00921383 -0.17149588 -0.15459275
000260 7a 6f b9 bd 8c 36 eb bd 05 ca 1d be 60 02 9f 3d
       -0.090544656 -0.11485013 -0.15409096 0.07764125
000270 20 89 b0 be d2 47 57 bd 90 c6 8c be df 82 44 3e
       -0.34479618 -0.052558728 -0.2749524 0.19190548
000280 4c 53 6e be 01 67 c8 bd ff 05 39 3d 85 67 9f 3d
       -0.23273963 -0.097852714 0.045171734 0.07783417
000290 a2 76 dd bd 9e b7 60 3d db 34 53 bd 9b c6 5d bc
       -0.10813643 0.05486261 -0.05156408 -0.013536121
0002a0 66 9b d5 bd c1 e1 51 be 14 0d 96 bd 72 ce c8 be
       -0.104300305 -0.20496275 -0.07326713 -0.39220005
0002b0 d4 d2 00 be f4 55 73 bd 28 57 e1 be 98 4f b7 be
       -0.12580425 -0.059408143 -0.44011807 -0.35802913
0002c0 42 a5 3f be 53 89 71 bc cf 0d 09 be aa af 0c bf
       -0.18715385 -0.014742213 -0.13384174 -0.5495554
0002d0 55 84 72 be cc a5 1d 3d 36 8e bc bd 75 55 fb 3c
       -0.23683293 0.038488194 -0.09206812 0.030680398
0002e0 36 b0 41 bc 55 47 7e be 0c b7 1e be 0e 73 ce bd
       -0.011821797 -0.24831899 -0.15499514 -0.10080539
0002f0 bd 62 7c bd 7a c0 92 bd c8 49 c3 3c af 45 21 3d
       -0.0616176 -0.07165618 0.023838893 0.039373096
000300 a2 d6 29 be de c4 89 3d 02 fc 9e bd 52 f6 7d be
       -0.16585782 0.067270026 -0.077629104 -0.24800995
000310 31 70 3f be 3e c1 00 bc 84 28 85 bd 4d 29 0e be
       -0.18695141 -0.0078585725 -0.06501868 -0.13882942
000320 92 62 ca be 68 99 a8 bd 2b 5e ef bc 54 c7 ed bd
       -0.39528328 -0.08232385 -0.029219707 -0.116102844
000330 bf b0 a4 bd 0e dc 66 bc 95 9e ca bd 4e 7b 9f bc
       -0.08041524 -0.014090551 -0.09893528 -0.019467976
000340 6d 22 84 bd c5 87 68 3d 57 83 23 be 28 75 5f be
       -0.06451879 0.056770105 -0.15968071 -0.21822035
000350 2c 09 13 be 5a dd 6d be 6d b3 01 bf cd 7a 53 be
       -0.14358968 -0.2322897 -0.50664407 -0.20652314
000360 c4 79 5d bb 3a f9 bb bd e5 71 d7 3c 4b 37 bc 3d
       -0.0033794502 -0.091783956 0.026299426 0.09190234
000370 a4 1d 0f bc 32 3b 5c 3c 7d 85 56 be d6 a8 50 bc
       -0.008735094 0.013441848 -0.20949359 -0.012735566
000380 f4 15 1b bb 4f c4 27 3d 24 05 4b bd bf 6f 8b bd
       -0.0023664208 0.0409587 -0.04956545 -0.06808423
000390 32 bc 09 be a3 b8 3a be 58 e2 99 bd d8 99 9e bd
       -0.13450697 -0.18234496 -0.07513875 -0.07744187
0003a0 dc 24 ac bc 9e 87 fb bd 7a 23 22 bd ce ad 6e be
       -0.02101367 -0.12281726 -0.039584614 -0.23308489
0003b0 4c e2 20 be 06 50 90 bd fd 8d e9 bd a3 46 65 bc
       -0.15711325 -0.07046513 -0.11404035 -0.013993892
0003c0 ce b2 66 be fe 77 6d be fb 3f b9 bd 58 60 05 be
       -0.22529146 -0.23190305 -0.090454064 -0.13025033
0003d0 b8 20 09 bd 58 9d 44 bd 9b dd 09 be 26 5e b5 be
       -0.03347847 -0.048001617 -0.13463442 -0.35423392
0003e0 6f 08 25 be cd 44 ad bd 31 2e d5 bd 08 44 2c bf
       -0.16116498 -0.08460388 -0.10409201 -0.6729131
0003f0 ba 08 c9 bd 7e e8 28 bd 06 8d 80 3d 40 28 3c bd
       -0.098161176 -0.041237347 0.06276898 -0.045936823

model._model.a2c_network.actor_mlp.2.weight f4 [256, 512]
000000 15 a2 95 bc 9d c8 08 3d cf f3 1b 3d b1 90 a5 bc
       -0.018265763 0.033394445 0.03807431 -0.020210596
000010 a4 99 5b bd 0e 7d 9f bd 2b cd 8d 3b bf 0a fa bd
       -0.05361332 -0.07787524 0.0043274364 -0.12209081
000020 51 fc 92 bd bb 82 e4 bc 8c ae 5e bd 3b ff c8 bd
       -0.07177032 -0.027894368 -0.05436568 -0.09814306
000030 80 6c 20 be a8 a1 39 bd 43 d4 f4 bc 8f eb 80 3d
       -0.1566639 -0.045320183 -0.02988637 0.06294929
000040 5e af c2 bc 6b d0 ce bc f1 95 03 3c b5 48 96 3d
       -0.023765262 -0.025245866 0.008031354 0.073380865
000050 24 f8 9e 3d 14 2c 0c bd 73 72 ce bd ee 0b 8c bc
       0.07762173 -0.034221724 -0.10080423 -0.017095532
000060 76 d4 d8 bd 77 3e 3e 3d 93 c4 e6 bb 06 6f 88 3d
       -0.10587399 0.04644629 -0.0070424764 0.06661801
000070 3f 2b 2f 3e 75 78 22 bd 25 27 86 3c 19 ac 7a 3c
       0.17106341 -0.039665658 0.016376087 0.01529982
000080 6d 67 88 bd f6 3a 0e be bb 2b 85 bd 8b 54 0e bc
       -0.06660352 -0.1388968 -0.065024815 -0.008687149
000090 a8 41 32 3d ca 08 33 bd 6b fc f4 bc fc 90 69 bd
       0.043519646 -0.043709554 -0.029905519 -0.057023033
0000a0 3c 01 ad 3d 78 92 c4 bd 5c 57 82 bd 7a 61 1a be
       0.08447501 -0.09598249 -0.06364319 -0.15076247
0000b0 e6 c3 93 bd ef e0 bb 3d 49 09 3d 3d e7 12 12 bd
       -0.07215099 0.09173762 0.046151433 -0.035662558
0000c0 80 1e a5 3c e5 97 f0 3b eb ca a8 3c d7 16 0f bb
       0.020156145 0.007342326 0.020604571 -0.0021833682
0000d0 05 ab 3c 3d c6 68 1f be 77 d9 b3 3c 5d 58 91 bd
       0.046061534 -0.15567312 0.021954281 -0.07096932
0000e0 ab 37 d1 bc e0 3e 71 3a 67 db eb bc e9 50 16 3d
       -0.02553924 0.00092027895 -0.028791143 0.036698256
0000f0 e5 b2 ad bd 43 04 b5 3b 89 6f 04 bd 28 9e ea bb
       -0.08481387 0.0055241897 -0.03233293 -0.007159967
000100 64 3c 63 bd 12 84 8c bc e1 70 04 bd f7 96 94 ba
       -0.055477515 -0.01715282 -0.032334212 -0.0011336495
000110 8d 3e 43 bd cc 98 de 3c 4a 43 55 bd 76 25 31 bc
       -0.047667075 0.027172469 -0.052066125 -0.010812154
000120 7c ec d4 bd 7f c7 69 bd 63 ef 7f bd 84 3e 0a 3d
       -0.10396668 -0.05707502 -0.062484156 0.033751026
000130 8c 29 01 bd d1 c3 ce 3c 0d 01 36 3d 55 a9 80 bd
       -0.031533763 0.025239857 0.044434596 -0.062822975
000140 2a 14 f5 3b d9 79 87 bd 6e b0 5c bc 03 15 be bd
       0.0074792104 -0.066150375 -0.0134697985 -0.092813514
000150 1a 60 a4 bd 76 a6 87 3d 28 af 90 bc 73 3e fa bd
       -0.080261424 0.06623547 -0.017661646 -0.122189425
000160 d1 04 43 3d 89 47 5e bd 99 19 c1 bd 20 76 b7 bb
       0.047612015 -0.05426744 -0.094287105 -0.0055987984
000170 5f ae a0 3d 2f 41 2e 3c 44 f8 a2 bd 77 b8 73 bd
       0.07845759 0.010635658 -0.07957509 -0.05950209
000180 25 aa 12 be 05 25 77 bd d9 a3 81 3c 40 d6 73 3d
       -0.14322717 -0.06033804 0.015825199 0.059530497
000190 cf f7 eb bd 0c 87 90 bd 02 96 12 bd 13 ad de 3c
       -0.11521875 -0.07057008 -0.03578759 0.027182138
0001a0 12 65 d7 bb 7c 82 d6 bd 8d c1 fe bc be 08 ad 38
       -0.006573328 -0.10474107 -0.031098152 8.250911e-05
0001b0 cc 0a 97 bd 9b bd 23 be 2a 40 2f 3d de 2e 79 3c
       -0.07375106 -0.15990297 0.0427858 0.015208928
0001c0 1c 20 61 bc 46 76 30 bd ca 46 f0 bd af 95 a6 bc
       -0.013740566 -0.043081544 -0.11732252 -0.020335047
0001d0 ee 59 1b bd fe 97 a4 bd e4 1c 16 3d 33 3b 16 be
       -0.03792756 -0.08036803 0.036648646 -0.1467102
0001e0 af 2f 7c 3b 33 e9 96 bc 1f 32 8a bc ac f9 76 bd
       0.003848057 -0.018421745 -0.016869603 -0.0602967
0001f0 f8 eb b1 bd ce fc 89 bd 73 00 10 be 2f 69 a3 bd
       -0.086875856 -0.06737672 -0.14062671 -0.079790466
000200 a0 dd 2c 3d 32 70 44 3d ab f8 2b bd 79 d0 42 3b
       0.042203546 0.04795856 -0.041985195 0.002972631
000210 d9 0e 92 bb 02 8e a3 bd 78 89 03 bd b4 84 aa bd
       -0.0044573364 -0.0798607 -0.032113522 -0.08326092
000220 80 e9 02 bd e2 e0 7d bd 52 0e 11 bd 9e 16 f1 3d
       -0.031960964 -0.061982043 -0.035414048 0.11771892
000230 dc 7c 65 bc c9 bf 06 3b f7 8a ed bc 28 0c 0e bd
       -0.01400682 0.002056109 -0.028996928 -0.03467956
000240 ba d0 07 be 8c 99 56 bd 75 72 e6 bd 6c 2f 03 3d
       -0.13263217 -0.052392527 -0.112523 0.032027647
000250 7d 33 cf bb 76 15 1d bd c0 5b cd 3c 25 72 c7 bc
       -0.0063232766 -0.038350545 0.025068164 -0.02434642
000260 72 b3 15 be 4d d0 70 3b 4f e2 7d 3d 83 9b 54 bd
       -0.14619234 0.003674525 0.061983403 -0.05190612
000270 63 45 3f 3d aa c8 0a 3c 0b ac 52 bc c0 69 1b bd
       0.04669703 0.008470694 -0.012858401 -0.037942648
000280 8f 3d bc 3d 6b f7 3e bd 20 61 a0 bd fc 03 ef bd
       0.09191429 -0.046622675 -0.07831025 -0.11670682
000290 6a 5c a9 3c 8b 4c da 3c 8c c6 86 3c ba b2 19 bd
       0.02067395 0.026647827 0.016452096 -0.037523963
0002a0 4c 57 0a bd d8 15 f9 bc 61 bc ab bc 6b 80 2f bd
       -0.03377466 -0.030405924 -0.02096385 -0.04284708
0002b0 d0 27 40 be fe d9 b2 bb 77 f2 59 bd 67 55 3f be
       -0.18765187 -0.0054581156 -0.053209748 -0.18684922
0002c0 cc e5 9f bd 56 43 88 bd 83 d6 e5 bc 2d 13 c3 3b
       -0.07807502 -0.06653468 -0.028056389 0.0059532137
0002d0 1a ff 13 be 3c 0f 00 bd d0 36 c2 3d 2d 9f 0b 3e
       -0.14452782 -0.03126453 0.09483111 0.1363494
0002e0 7d e4 f8 bd 2f d0 16 be 3b c7 f4 3c 54 b5 04 bd
       -0.12152956 -0.14727853 0.029880157 -0.03239949
0002f0 8f c7 33 3d 57 33 6a bd 62 6d 83 bc 3c 19 fd bd
       0.043891486 -0.057177868 -0.016043369 -0.12358329
000300 d4 3d 23 bd 16 b1 be ba 58 08 ac bd af e0 9c bc
       -0.039853886 -0.0014548625 -0.08400029 -0.019150106
000310 4d b8 01 bd 0e 10 76 bd 60 ca be 3c 55 bd 49 3c
       -0.031669904 -0.060073905 0.02328986 0.012313207
000320 4d 24 c6 bc 9f 49 88 bd 35 ce 76 3c f6 ed 0e 3c
       -0.024187231 -0.06654667 0.015063812 0.0087237265
000330 b6 55 4b bc 03 34 65 3c ab d6 89 bc d3 a0 c6 bd
       -0.012410572 0.013989451 -0.016825994 -0.096986435
000340 ea 58 12 3b b5 a9 9e 3c e0 3a 23 3c fd 21 b9 bc
       0.002233083 0.019368032 0.009962767 -0.022599215
000350 60 1b 0f 3d 7c 5a 10 3d e0 c7 27 bd 2a 96 2a bd
       0.034938216 0.035242543 -0.0409621 -0.041647114
000360 af 55 37 bd 26 91 57 3c e0 a9 8d bd 3e 96 25 bb
       -0.04475945 0.013157165 -0.06917167 -0.0025266553
000370 ad 17 c7 bc a7 27 81 3c 80 a0 fd 3c 40 a8 22 bd
       -0.024303282 0.015765978 0.030960321 -0.039711237
000380 36 ad 8f bd 5d 0c 49 bc 31 c2 ef 3c 69 de a5 bd
       -0.07015459 -0.012271014 0.029267402 -0.08099062
000390 59 03 0a 3d 50 f9 df 3c f8 7d 79 bd e6 00 fb bd
       0.0336946 0.027340561 -0.06091115 -0.12256031
0003a0 0b 42 34 bd e3 41 16 bb 03 74 8d bc c3 4e e9 3d
       -0.044008296 -0.0022927455 -0.017267233 0.11391976
0003b0 f9 93 d0 bd 96 92 d2 bc 92 d9 62 3d dc 5c d6 bb
       -0.101844735 -0.025704663 0.055383272 -0.0065418314
0003c0 7c b5 8a bc df aa 80 bd ce 51 15 bd 67 9e 1d bd
       -0.016932242 -0.06282591 -0.03645497 -0.038481142
0003d0 aa 24 b9 3d 81 c4 5b 3d e0 1f b4 3c 77 f9 18 bd
       0.09040196 0.053654198 0.021987855 -0.037347283
0003e0 18 1e 5a bd 9c 90 ef 3c 92 04 91 bd 3a 60 c3 bc
       -0.053251356 0.02924376 -0.0708095 -0.023849595
0003f0 ee f9 b8 bc 71 4d 26 3d ba bf 73 bd 08 5c d7 bd
       -0.022580113 0.040601198 -0.059509017 -0.105156004

model._model.a2c_network.actor_mlp.4.bias f4 [128]
000000 6a 95 aa bc f5 42 59 3b a2 a2 b3 bd 76 0f 05 bd
       -0.0208232 0.0033151482 -0.08771254 -0.032485448
000010 5a 99 a7 bd c9 7e 94 bd 83 f7 06 bd a9 a6 b4 bc
       -0.08183546 -0.07250745 -0.03295089 -0.022052126
000020 45 7b fa bc 34 b3 a0 bd a6 29 47 bc d4 ac 48 3d
       -0.030576358 -0.0784668 -0.012155926 0.048992947
000030 9f 49 da bd e8 32 0e be cc 6f 13 3d 6e 6e 75 bd
       -0.10658573 -0.13886607 0.03599529 -0.059919767
000040 53 c6 9a bd 75 dd 4d bc a7 d8 bc be c1 14 07 be
       -0.075573586 -0.0125650065 -0.36884043 -0.1319151
000050 bb 1e fa bd 99 9a 4c 3c ce 1d c1 bd 01 a5 1f be
       -0.122128926 0.012488031 -0.09429513 -0.15590288
000060 21 9a 89 be e6 af 51 bd df 4e de bd d0 0f 73 bd
       -0.26875404 -0.05119314 -0.10854887 -0.05934125
000070 c6 6e d8 be 80 1b 89 bd b2 06 3d be c8 0e 86 bd
       -0.42272013 -0.06694698 -0.18459585 -0.06545788
000080 70 d2 d0 bd d8 32 31 bd f4 47 22 bd f2 17 d7 3c
       -0.10196388 -0.04326138 -0.0396194 0.026256535
000090 0a a8 8d be ba 5b da bd 87 a4 8a be 7b 8c 79 bd
       -0.27667266 -0.10662027 -0.2707865 -0.06092499
0000a0 f4 ba b6 bd 29 70 7b bd 8e 2b dd bd 86 cd 49 bc
       -0.08922377 -0.06138626 -0.10799323 -0.012317067
0000b0 bb 99 bb be 5c dc b1 bd c5 c2 bc bc 8a 08 9c bd
       -0.36640725 -0.08684608 -0.023042092 -0.07618816
0000c0 43 d6 cf bd 70 95 49 3c 1e 8a 02 bc d3 81 f8 bc
       -0.10148289 0.012303695 -0.0079675 -0.030335343
0000d0 6b 61 82 be 04 d6 f1 3c ac 43 e8 bc c2 59 0f 3a
       -0.2546495 0.029520996 -0.028352581 0.0005468392
0000e0 c8 0f e4 bd 37 78 8f 3d 5d 49 ce bc 7d cb 31 3d
       -0.111358225 0.07005351 -0.025181467 0.043406952
0000f0 d8 53 a4 bd e6 48 b8 bd 32 ce e8 bd 85 0b 33 be
       -0.080238044 -0.08998279 -0.11367454 -0.17484863
000100 c2 66 0b bf 11 17 d0 bd f5 f0 ca bc 36 2c f3 bb
       -0.5445367 -0.101606496 -0.0247731 -0.007421042
000110 94 07 c0 3a aa 4b 4d bd 9d af 0b be d8 ba 8b bd
       0.0014650696 -0.050120987 -0.1364121 -0.06822747
000120 a4 47 ee bb bf b9 b9 bd bb 6b 44 be bf 6d e4 bc
       -0.007271724 -0.090686314 -0.19181721 -0.027884362
000130 c0 82 a5 bd d0 17 bb bc 23 c8 6c be 79 39 b6 3c
       -0.08081579 -0.022838503 -0.23123221 0.022244202
000140 bc 13 c8 bd 21 f5 fa bd 19 b8 0f bd f8 66 73 bd
       -0.09769389 -0.12253786 -0.03508768 -0.05942437
000150 02 60 e2 bd 11 55 65 bd 93 7e b6 bd 56 e4 bc bd
       -0.11053468 -0.05598933 -0.08910861 -0.09223239
000160 67 ba dc bd 99 62 cc be ed f3 86 bd d3 f3 c7 3c
       -0.10777741 -0.39918974 -0.06589494 0.024408257
000170 8d 09 87 bc c6 95 96 bc e9 18 38 39 d0 93 e6 bd
       -0.016484046 -0.018381964 0.00017556887 -0.11258662
000180 49 1f 9d 3d 62 bc d4 bd 3b b9 a8 3c 4c 80 9e be
       0.07671983 -0.10387494 0.020596137 -0.30957258
000190 6d 85 04 be 70 12 21 bc 82 9e 40 be e2 7a 81 bd
       -0.12941523 -0.009831056 -0.18810466 -0.06322266
0001a0 b1 89 c7 be ed cb 13 bd 5a ae 4b bd 05 5e ac bd
       -0.38972238 -0.03608315 -0.04972682 -0.0841637
0001b0 42 5e b4 bd 12 e8 e2 bc 39 56 0b 3d ef 30 c3 bd
       -0.08807041 -0.02769855 0.034017775 -0.09530818
0001c0 28 56 78 3c 64 1b d2 bd eb 41 03 be 66 02 85 be
       0.01515726 -0.102591306 -0.12818114 -0.25978392
0001d0 66 ef bf bd b1 e9 ac bd 7e eb 07 be 67 c7 65 bd
       -0.093718335 -0.084430106 -0.13273427 -0.056098368
0001e0 1a 35 ae bd fb b6 1a be 9f 79 c2 bd c8 0f c8 bd
       -0.08506222 -0.15108864 -0.09495854 -0.09768635
0001f0 60 80 1b 3b 17 eb 8f bd 3d 6e 9d bd a4 1a a2 bd
       0.002372764 -0.07027262 -0.07687042 -0.079152375

model._model.a2c_network.actor_mlp.4.weight f4 [128, 256]
000000 ab b3 7d bc 68 e6 5a bb 94 40 ae 3c 52 44 8a bb
       -0.015484731 -0.0033401493 0.021271028 -0.00421957
000010 1a 28 95 3d ce 3b 3f 3c 7d 8d 01 3d c5 a6 0a 3d
       0.072830394 0.011671973 0.031629074 0.03385045
000020 a2 ab 83 bd 88 ae 94 bb 9d 7a 35 3e 09 81 94 3d
       -0.06429221 -0.0045374073 0.17722555 0.07251174
000030 e5 5e 6a bd 75 32 78 3d 4c a4 24 bd f6 8a 13 be
       -0.057219405 0.060594995 -0.04019575 -0.14408478
000040 8d cb 85 bd 09 d1 fe 3d 19 32 a1 3c b8 5a c3 3c
       -0.06532965 0.12442214 0.019677209 0.023846969
000050 df 96 db bb da 21 97 bb a2 77 e6 bc 51 28 d5 bd
       -0.006701335 -0.0046121897 -0.028133217 -0.1040808
000060 e3 fb 10 3c 95 76 88 3c 97 3d 33 bd b5 95 7b 3d
       0.008849117 0.016658107 -0.04375991 0.06142207
000070 b8 c0 f2 3b 16 b7 10 bd 8a bb 2b bb 27 aa 9d 3d
       0.007408228 -0.035330854 -0.0026204311 0.076984696
000080 77 63 33 3d e2 ae 91 3d fc 83 78 3c 05 cb 2d bd
       0.04379603 0.071134344 0.015168186 -0.042429943
000090 8e cf 5f 3d 7f 15 97 bd b3 bd 14 bd 23 df 16 3d
       0.0546413 -0.07377147 -0.036313724 0.036833894
0000a0 23 04 a1 3d b4 9e 68 3c 70 87 69 3d f8 20 08 bd
       0.07862117 0.014197994 0.05701393 -0.033234566
0000b0 5c 42 ec bd 42 26 3c 3c 07 46 00 bd 6b 1e 12 bc
       -0.115360945 0.011483731 -0.031316783 -0.008918385
0000c0 f7 6a 09 bd b6 3e a3 bc 29 7f b0 3d f4 3b 50 3d
       -0.033549275 -0.019927364 0.08618004 0.050838426
0000d0 a5 05 aa bc 3f ba 8b 3c 10 95 b1 bc e9 93 50 bc
       -0.020754645 0.017056582 -0.021677524 -0.012730577
0000e0 98 bf c9 bc 32 90 2b bc 9e 1d 1e 3d e6 0b 3f bd
       -0.024627492 -0.010471391 0.038602464 -0.046642207
0000f0 31 5f 08 3d 75 f7 60 3c 7d d5 8c bd 3e ac ba 3b
       0.033293907 0.013730873 -0.06876657 0.0056968024
000100 00 5d b6 3c 66 74 4b 3d 72 5d 96 3c 62 e9 c9 3c
       0.022261143 0.049671553 0.018355105 0.024647418
000110 f7 1c 85 3c c4 5f 65 bd 07 af af bc a2 cd ad 3d
       0.016249163 -0.055999532 -0.021445764 0.08486487
000120 c4 5f f2 bc 69 bc 67 bd 79 10 b0 3c dc 3e d7 bc
       -0.02958668 -0.056576166 0.02149223 -0.02627509
000130 5e 38 d9 bc d9 40 56 bd 60 3a 84 bc 9c 19 93 3c
       -0.026516136 -0.052307937 -0.016141117 0.017956547
000140 7f 56 c3 bc ad e6 49 bd db 8e ef 3c d7 73 fe ba
       -0.023844955 -0.049292255 0.029242923 -0.0019413185
000150 49 a8 b6 3d 04 71 cb 3a 39 d4 c5 bb 1e 35 ac 3c
       0.089188166 0.0015521352 -0.006037262 0.021021422
000160 00 81 ab 3d c5 cb 41 bd a0 d4 f5 bc 81 bf a0 3c
       0.08374214 -0.04731347 -0.030008614 0.019622566
000170 d4 2c e3 3d 1d dd 99 bd 93 a0 62 bc 9d 30 43 3d
       0.11092535 -0.07512877 -0.013832229 0.047653783
000180 ba df 58 3d c0 ef 45 bd 21 f7 49 bd 1c 4f 03 3d
       0.052947737 -0.048324347 -0.049307946 0.032057866
000190 e0 3f a9 3d a8 b8 41 3d 1f 8b e1 b9 16 71 1d 3e
       0.08264136 0.047295243 -0.00043018998 0.1537517
0001a0 ee 7d 76 bc 65 55 dd bd d0 ff 1f bd 8d 5d 0c 3d
       -0.015044672 -0.10807303 -0.03906232 0.034268904
0001b0 6c 13 be bd ed e2 86 ba db 86 cc bd 0b 60 c8 bc
       -0.09281048 -0.0010291018 -0.09986659 -0.02445986
0001c0 4c d0 e1 3a 2d 79 cd bd cb 6e 89 bd e4 35 bc bc
       0.0017228215 -0.10032878 -0.06710585 -0.022974916
0001d0 9d 12 98 3d e9 2d 85 3d 93 b0 02 3b 07 7f fa bb
       0.07425425 0.06502897 0.0019941672 -0.0076445374
0001e0 ab aa 27 3d 69 21 ba 3c ce f0 52 bd bf f8 5b 3d
       0.040934246 0.02272101 -0.05149918 0.05370402
0001f0 ea 82 7e 3d c4 8f 8d bc e6 1d ff 3b d4 2e 51 3c
       0.062136568 -0.017280467 0.0077855466 0.012767512
000200 b9 6f 13 3d c0 17 26 3d a5 2b 88 3c d0 76 a4 bc
       0.03599522 0.040549994 0.016622374 -0.020076185
000210 e3 0e 93 3c f6 d1 c0 bc b8 2a 69 bb 86 e8 4a bd
       0.017951434 -0.023537617 -0.003557844 -0.049538158
000220 d1 38 54 bd e0 d6 b5 3c a9 58 89 3d 40 8e e5 3c
       -0.051811997 0.022197187 0.06706364 0.028021932
000230 54 6e e5 3c 8f b4 30 bd 29 78 f8 bd d3 fb 80 bc
       0.02800671 -0.043140944 -0.12132294 -0.01574508
000240 6b bb 79 3c 41 04 88 3d f5 4b 2d 3c d6 af ff 3b
       0.015242438 0.06641436 0.010577192 0.0078029437
000250 3c b9 80 bc 4e bc bc 3c 2d 6e ea 3d d9 c4 fd bb
       -0.015713327 0.02303901 0.114467956 -0.0077444133
000260 fb cb b5 3d 53 4a 30 be be 3a 9a bd 92 1d d2 3c
       0.08876797 -0.17215852 -0.075307354 0.025648866
000270 da 96 c6 3d b7 4c 3e bd c0 27 9f bd ec 86 de bd
       0.096967414 -0.04645988 -0.077712536 -0.10865578
000280 58 a9 42 3d ea c5 0a be 80 43 f9 3c 6c 68 1b 3d
       0.04752478 -0.1355206 0.030427694 0.03794138
000290 71 fc 4a bc 11 d1 b9 3c ba 65 e7 bd 94 e9 ff 3d
       -0.012389288 0.022682698 -0.112987 0.12495723
0002a0 13 a0 ab 3c d1 93 87 bd c5 d8 a5 bc 9c 85 ba ba
       0.020950353 -0.066199906 -0.020244965 -0.0014230493
0002b0 92 05 88 3c 93 83 ac 3d 9b fe 8b bd 64 fe 5f bc
       0.016604219 0.08423533 -0.068356715 -0.013671491
0002c0 96 6d 54 bd 75 f2 8e 3d 3e c5 54 bd 39 cb f4 3c
       -0.05186232 0.06979839 -0.051945917 0.02988206
0002d0 31 65 8c ba 5b 1c 32 3b de e3 d9 3c 0c 0d cf ba
       -0.001071131 0.0027177546 0.026597913 -0.0015796735
0002e0 96 29 c0 3d 23 de 73 3d 2d ce d4 bb 52 a8 24 bc
       0.09382932 0.059538018 -0.0064943046 -0.010049896
0002f0 db 16 83 3d 00 aa a6 bd 06 17 73 3c 89 73 cf bc
       0.06400844 -0.08137894 0.014837032 -0.025323646
000300 51 b7 6c bd 1d 1e 6d 3b 55 4d 2b bd de 6d 0f 3c
       -0.05779201 0.003618128 -0.041821796 0.008754222
000310 04 3b 51 3d e9 ec f4 bc 72 3d 6a bd 62 23 26 3c
       0.051081672 -0.029898124 -0.057187505 0.010140272
000320 74 c4 86 3d cb a6 a0 3d 18 f3 bb 3c 58 b3 24 bd
       0.06580439 0.07844313 0.022943065 -0.040210098
000330 f1 1c cb 3b d0 49 bb 3c b2 64 97 3d 2f 36 26 bc
       0.0061985184 0.022862345 0.07392253 -0.010144754
000340 1a 84 58 bd f5 46 82 bc 0f 07 c3 bd 26 78 83 bc
       -0.052860357 -0.015902976 -0.09522831 -0.016048502
000350 e0 ec 3b 3d 44 f3 57 3c c8 38 3f bc e9 75 d9 3d
       0.0458802 0.013180558 -0.011671253 0.10618193
000360 25 7d 3f bc 1f 28 d6 3d a5 43 d9 bd 19 76 6e bd
       -0.011687552 0.10456871 -0.10608605 -0.058218095
000370 8d 50 f4 bd 3c b2 8c bc c2 6c 68 bc dc 32 98 3d
       -0.11929426 -0.017174833 -0.014186086 0.07431576
000380 a3 a3 ab 3d 54 dc 6a bc 6c ec 3d bd 33 86 67 bc
       0.083808206 -0.014334757 -0.046368048 -0.014131117
000390 cf 92 9a 3d f8 22 cd bc 8e da 50 bd d3 46 f2 bb
       0.07547533 -0.025041088 -0.05098968 -0.007393697
0003a0 bd 39 4d bd 1e 06 a5 bc c6 a1 e7 3c 78 be 03 bd
       -0.05010389 -0.020144518 0.028275382 -0.032164067
0003b0 4a 5b 28 3d 59 79 b3 3c ad a3 dd 39 36 e8 04 bd
       0.041102685 0.021908449 0.00042274353 -0.032448016
0003c0 44 00 b9 3d 54 d1 f9 3c cf 85 5f bd 13 cc 45 bb
       0.09033254 0.030495323 -0.05457097 -0.0030181452
0003d0 e8 15 10 bb 5b 4c 87 bd b2 7b f5 bc 33 77 58 bc
       -0.0021985713 -0.066063605 -0.02996621 -0.013212013
0003e0 57 0e 41 3d 1f 43 3a 3d 19 5f 16 bd 09 7c 9e 3c
       0.047132816 0.045474168 -0.036711786 0.019346254
0003f0 7f e6 19 bd 81 17 9a 3b d8 1b 3a 3d dc 53 05 3d
       -0.037573334 0.004702509 0.04543671 0.032550678

model._model.a2c_network.value.weight f4 [1, 128]
000000 d7 64 01 3a 33 fc db bb c4 ad 96 3b 37 9f 85 3a
       0.0004935986 -0.006713414 0.004598351 0.0010194544
000010 39 5f d4 bb 26 28 26 3c 13 07 1a bb 39 18 a6 ba
       -0.006481078 0.010141408 -0.0023502752 -0.0012672014
000020 b0 06 c0 3b fb bf b8 bb 57 90 4b ba 89 71 98 3a
       0.005860172 -0.00563812 -0.0007765344 0.0011630516
000030 3a 4d 4e 3b 97 1a 24 3c 71 d0 13 ba da 18 9b bb
       0.0031479136 0.010016105 -0.0005638665 -0.004733187
000040 d1 b2 9e bb 53 5d 32 bc 13 7d 1f 3e 44 bc 50 bb
       -0.004843094 -0.010886508 0.15575056 -0.0031850496
000050 db d6 6e 3c 53 32 20 bb 54 96 ed ba 62 54 fe 3c
       0.014577593 -0.0024444058 -0.0018126466 0.031046096
000060 25 b5 b9 bc 59 0a 12 b7 ad 15 d9 bb ce 2e 6c 3b
       -0.022669384 -8.704687e-06 -0.0066248984 0.003603864
000070 ca 1a 2f 3e 11 93 a2 ba e9 4b 00 b9 90 55 b0 b9
       0.17100063 -0.0012403448 -0.0001223531 -0.00033633085
000080 79 37 fe b9 02 c9 c9 3b 55 6b b4 bb ba 69 0e ba
       -0.00048487986 0.006157995 -0.005505959 -0.00054326246
000090 d3 d1 e1 3d e7 c3 ab bc 75 83 b3 3b 20 98 e4 3a
       0.11026349 -0.020967437 0.0054783174 0.0017440356
0000a0 b4 50 b8 bb 9d c7 8f 3a f4 20 2e 3a 71 35 0e bb
       -0.005624855 0.0010969524 0.00066424836 -0.0021699334
0000b0 56 a2 b0 3d c4 36 29 bc 6c 81 d5 bb 30 ad 87 bb
       0.08624713 -0.010327999 -0.0065156724 -0.0041405186
0000c0 c0 a5 cc bb c3 f0 80 ba 62 41 04 ba 69 22 a5 ba
       -0.006245345 -0.0009837378 -0.0005045143 -0.0012598756
0000d0 7b f5 ae bc da ef 2b ba 3e 20 a3 b9 2b d3 74 bc
       -0.021357289 -0.0006558873 -0.00031113805 -0.0149429245
0000e0 31 1e cf 3b 6f bf b2 bb 00 29 ab bc 68 44 2a 3c
       0.006320738 -0.0054549496 -0.020893574 0.010392286
0000f0 78 1c fa 3b f1 ec 89 bc 5d 71 88 3b 96 64 ef 3b
       0.0076327883 -0.016836615 0.0041639046 0.007305692
000100 ff 4e f3 bd 40 5b d0 3b 3e d3 8f 3b 05 66 66 3a
       -0.11880302 0.006358534 0.0043891957 0.0008789006
000110 ad ef b6 39 8f e3 76 bb 12 8f a2 3b dd f3 b8 bb
       0.00034892317 -0.0037672257 0.004960903 -0.005644305
000120 06 cd cf bb 37 df d3 ba 98 10 9b b9 19 88 39 bc
       -0.0063415794 -0.0016164546 -0.00029576267 -0.011323952
000130 60 b9 bd b9 b3 95 ac 3d ff 5e 91 3d 78 07 b4 bc
       -0.00036187004 0.0842699 0.07098197 -0.021976218
000140 f6 8a 36 bc 24 32 1b bc a3 9c 37 3b 11 4e 69 3c
       -0.011141529 -0.009472404 0.0028016947 0.014239804
000150 a2 6e 62 bb 9e 7b a2 3a db 35 02 3b 32 ac 84 bb
       -0.0034550806 0.001239646 0.0019868526 -0.0040488476
000160 54 6a 1b ba a4 8c ed bd fe 97 1e bb 2d a1 5c 3b
       -0.0005928625 -0.11599091 -0.002419948 0.0033665404
000170 c0 ef 8c ba 32 97 71 bb b6 1e 76 ba 79 2e 03 bb
       -0.0010752603 -0.00368638 -0.00093887316 -0.0020016714
000180 63 ae 44 bb 81 8d 92 bb 22 c1 9e 3b 6b 9f 45 bd
       -0.003001117 -0.004472435 0.0048448006 -0.048247736
000190 7b 8b 05 bb 70 16 48 bb 5e fc 93 3b bf df 0b bc
       -0.0020377326 -0.0030530952 0.0045161685 -0.008537232
0001a0 b2 f6 13 3e 41 63 2b bb 0e 96 15 bc 27 9f 4b bd
       0.14449576 -0.002615169 -0.009130014 -0.049712326
0001b0 7e bc e6 3a 40 12 9b b8 88 80 b4 bb 52 92 26 bc
       0.0017603782 -7.394375e-05 -0.005508486 -0.010166721
0001c0 97 58 e0 b9 97 fb 10 bc d9 25 f0 bb 37 94 39 bb
       -0.00042790614 -0.008849046 -0.0073287305 -0.0028317103
0001d0 17 fc 71 bb 8d 41 0b 3c 51 86 30 3c a3 f4 e9 38
       -0.003692394 0.008499515 0.010774211 0.00011155873
0001e0 2a 8e 54 bc 00 36 a7 bc 38 ba 2b bb 2c 2b 04 bc
       -0.012973348 -0.020411491 -0.0026203524 -0.008066934
0001f0 57 be c3 bb ef 63 c6 bb a6 95 5e 3a 5b 58 cf b9
       -0.005973618 -0.0060543935 0.0008490927 -0.00039547947

model._model.a2c_network.mu.bias f4 [4]
000000 6b d8 17 39 0c 6b aa bc eb 46 87 bd ce dd 17 3d
       0.00014481104 -0.020802997 -0.066053234 0.037076764

model._model.a2c_network.mu.weight f4 [4, 128]
000000 b4 e5 44 bc 10 11 97 bc 04 fa f0 3c b9 f6 e5 3a
       -0.012017656 -0.018440753 0.029416092 0.0017544843
000010 1e ca 1b bb 09 76 05 bd 02 3b fd 3b 22 56 82 bb
       -0.0023771594 -0.03258327 0.0077279815 -0.003977553
000020 5a f3 e8 3b 2a fb 87 3b 45 2e b3 3c 89 40 29 bb
       0.007109088 0.004149814 0.021872649 -0.002582582
000030 a4 c8 4b bc a3 98 3f bb 09 0d e9 ba 1f 0b d5 b9
       -0.012437973 -0.0029235266 -0.0017780374 -0.00040634812
000040 e1 29 1c 3c 85 b4 6c 3d ba b3 70 3c 5e c2 02 ba
       0.009531469 0.057789344 0.014691288 -0.00049880694
000050 9a e5 4d 3d 4c c7 45 bb 97 98 8d 3a dd 0f cb 3c
       0.050267793 -0.0030178605 0.0010802922 0.024787838
000060 a8 12 92 bc 20 c9 f1 bb 46 ba b4 bc 15 6e 2c 3c
       -0.017831162 -0.0073787123 -0.022061478 0.0105242925
000070 44 5c ae 3c f9 a0 aa 3b f4 6e 8f bc 5c 9e e3 3c
       0.02128423 0.0052071777 -0.017508961 0.027785473
000080 6d 0f 18 3b 54 f9 de bc 80 06 d2 ba 1a e4 1f bb
       0.0023202554 -0.027218498 -0.0016023666 -0.0024397434
000090 09 9d 19 3c 47 43 9f bb 03 7f 42 3d ab 17 9c bb
       0.009375819 -0.004860315 0.04748441 -0.0047635636
0000a0 9a fb 8c 3d 1d 17 18 bd 5d 25 ea ba 56 5f 27 3c
       0.06883927 -0.037131418 -0.0017863918 0.010215601
0000b0 62 e4 bd 3a 63 cb 5e 3c fc 71 44 bb f8 0d 2e 3b
       0.0014487619 0.013598296 -0.0029975167 0.002655862
0000c0 b0 a2 f6 bb 1d fc ad 3c 64 8a 08 3b eb bc fb ba
       -0.007526718 0.021238381 0.002083444 -0.0019206082
0000d0 bd 55 1e 3d 71 c7 6e 3c 51 20 78 3c 62 e8 89 bc
       0.038655985 0.014573918 0.015144424 -0.016834442
0000e0 36 e8 bd 3d a1 2d c6 3d c4 60 18 bb 44 77 d7 3c
       0.09272806 0.09676672 -0.0023251036 0.026301987
0000f0 7c 99 6d ba aa 37 d9 bb ed 03 9a bc 62 75 b3 3c
       -0.00090637035 -0.00662895 -0.0188007 0.021906558
000100 f0 4f 86 3d 7c 7b 51 3a 84 71 0c 3c cf d8 e7 ba
       0.065582156 0.0007991118 0.008571986 -0.0017688515
000110 25 d2 c4 3a 0c e2 2a 3a 5d 20 3d 3b 63 1e 4b 3c
       0.0015016241 0.0006518669 0.0028858401 0.0123973815
000120 ce d2 cf 3a 47 f9 f7 bb 81 f5 1d bd d8 65 cd bc
       0.0015855671 -0.007567558 -0.03856421 -0.025072977
000130 a7 07 a5 3b 0c d0 f5 bb 2c f2 69 3c 2e bf 6b bc
       0.0050363126 -0.0075016078 0.01427893 -0.0143888425
000140 e6 de b4 bc 3a 0e 2a b9 1e b8 1b ba 0b 8e ad 3d
       -0.022078943 -0.00016217763 -0.00059402164 0.08474358
000150 52 a1 b5 3a 42 04 41 3b 74 a8 be b9 a7 f9 62 bc
       0.0013857281 0.0029452 -0.0003636513 -0.013853467
000160 f5 98 14 bb da 29 ae bc 34 f3 4c bc c4 7a d5 bc
       -0.0022674177 -0.02126019 -0.012509156 -0.026059516
000170 7b 97 bb bb b9 d4 56 3c f0 21 0c bb 41 88 a5 bc
       -0.005724845 0.0131122405 -0.0021382533 -0.020206572
000180 19 29 09 3d ca e7 9c bc b6 05 68 3a 47 5f 8e 3d
       0.03348646 -0.019153494 0.00088509487 0.069517665
000190 cc db 2e bd ef 23 f5 3a 4f eb a4 3b ca 27 56 3c
       -0.042690083 0.0018702726 0.005032934 0.01307101
0001a0 18 77 80 3d d1 a7 6d b9 71 12 6a bb 90 6a a2 bc
       0.06272715 -0.00022664598 -0.0035716558 -0.019826204
0001b0 a9 c1 de 3c 2f 5e 21 bc 23 98 9f bb a6 e0 20 bc
       0.027191954 -0.009849115 -0.004870431 -0.009819185
0001c0 4a eb 93 3a 01 45 a6 3c 71 aa 02 bd 5e 1a 2a bd
       0.0011285332 0.020296576 -0.031900827 -0.041529052
0001d0 79 2d 1f bc 8f db a8 bd c8 41 33 bd 15 a7 a7 bc
       -0.009715431 -0.082450025 -0.043763906 -0.020465413
0001e0 6e d5 cf b7 8f b7 9f bb 2a 37 98 bc c6 f1 5e bb
       -2.4775709e-05 -0.004874177 -0.018580992 -0.003401862
0001f0 a9 1c 80 bb e1 7c 88 bb 7a e6 93 3b df d9 f4 bb
       -0.0039096666 -0.0041652774 0.004513559 -0.0074722613
000200 44 a9 f0 bb 31 2d 79 bd 18 45 9d bc 1a 0a b4 ba
       -0.007344397 -0.060834114 -0.019197986 -0.0013735921
000210 cd 70 f9 3a 3e 88 12 3d 72 1a 36 3b 9f 63 ca bb
       0.001903081 0.035774462 0.0027786759 -0.0061764265
000220 85 21 8e 3b 0e 84 5d 3b b1 09 c9 3c 3b 5f 52 bb
       0.004337492 0.0033800635 0.024540754 -0.0032100219
000230 58 4a b0 3a 29 b6 d9 bb 89 c4 28 3b 51 61 b0 3b
       0.001344989 -0.0066440296 0.002575191 0.005382695
000240 c2 26 a9 3a f7 dc e9 bc be 45 9e bc f5 87 2a bb
       0.0012905227 -0.028547747 -0.019320365 -0.0026020978
000250 71 64 73 3c 6f 67 e5 3a d7 c9 6a 3b 78 49 78 3c
       0.01485549 0.0017502139 0.0035825872 0.015154235
000260 ea 39 89 bd af 6c 23 bb 13 0f 8a bb f8 11 d3 3c
       -0.06700499 -0.0024936607 -0.004213223 0.025765404
000270 af 6c f6 3b cc 29 85 bb 20 47 a0 3a f6 b2 02 3d
       0.0075202803 -0.0040638205 0.0012228228 0.03190895
000280 ff b5 53 ba fc c8 5e bc a4 17 20 bc 54 8f 08 3b
       -0.0008076131 -0.013597723 -0.009771261 0.0020837383
000290 d2 42 9e bc 2f c1 8b 3a 49 0e 32 bc ee 35 50 3b
       -0.019318972 0.0010662432 -0.010867664 0.0031770426
0002a0 50 2b a8 bd bf 32 8e bc 16 39 01 bb 6d 2e ca 3c
       -0.08211386 -0.017358182 -0.0019717864 0.02468034
0002b0 b1 2d 6a bc bd 24 d6 3b 66 f3 71 bd 97 d6 29 ba
       -0.01429312 0.0065351413 -0.059070013 -0.0006478815
0002c0 e0 fa 67 bc c2 0c 5f 3c be 72 71 3b a9 f5 46 3c
       -0.014158934 0.013613882 0.0036842073 0.012143531
0002d0 e3 36 bd 3c 9e 3c 5d 3c 29 38 8a 3c b3 2c e7 bb
       0.023097461 0.013503222 0.016872482 -0.007054889
0002e0 d8 2a 65 bd 15 39 7b bd 2e 5f c1 3a a5 b8 88 bc
       -0.055949062 -0.061333735 0.0014753097 -0.016689608
0002f0 ca 91 c0 bd 62 f8 0a bc 61 73 85 3b 80 6b ce 3c
       -0.09402807 -0.008482071 0.004072592 0.025197744
000300 b5 e4 e3 3b 3f 80 79 3c 07 b7 d3 3a 99 02 f5 b9
       0.0069547542 0.01522833 0.0016152569 -0.00046731977
000310 b9 b6 07 3c c1 47 1a b9 38 41 a0 3c 4f 30 21 bd
       0.008283311 -0.00014713315 0.019562349 -0.03935271
000320 52 90 02 ba 39 e2 41 3b a0 a4 48 bd 6a d7 df 3c
       -0.0004980612 0.0029584302 -0.048985124 0.027324397
000330 78 10 46 3b f7 53 b1 ba 29 c0 ac bc b4 0b 04 bb
       0.0030222218 -0.0013529052 -0.021087723 -0.0020148577
000340 1a 96 68 bc 99 e1 f5 3c 9a 49 82 3b 6e 96 c9 3c
       -0.014195943 0.0300148 0.003976059 0.024607863
000350 8e 0b 9c 3b 7d d2 5d bb 64 9e 5b 3a b8 be d9 bb
       0.0047621196 -0.0033847385 0.0008377789 -0.00664505
000360 ea d6 0d ba ff 8c 51 bc 44 3b 6e 3b 2d e4 50 bc
       -0.0005410748 -0.012789964 0.0036351243 -0.012749714
000370 00 c0 a4 39 69 fe 4c 3c 95 20 b5 ba b1 61 ea bc
       0.0003142357 0.012511828 -0.0013818914 -0.028611036
000380 d5 9c 8a 3c 10 d9 d6 bd 0a 7f 8c b9 1d 15 5a 3c
       0.016920486 -0.1049062 -0.00026797532 0.013310698
000390 62 62 33 bd 77 b7 4a 3b 83 3c ed 3c 78 09 d2 3b
       -0.043794997 0.0030932107 0.028959518 0.00640982
0003a0 c4 59 1a bc ad 99 97 b9 6e 5e c3 3d f8 28 e1 3c
       -0.009420816 -0.00028915462 0.095394954 0.027485356
0003b0 8d 7d 3e 3c ae fd bc 3c 5d 27 8d b8 4a 53 8e bb
       0.011626613 0.023070183 -6.730736e-05 -0.004343425
0003c0 93 13 fb 3a 9f d7 34 bc 7f 32 b0 bc 92 6a 21 bd
       0.0019155614 -0.011037736 -0.021508453 -0.039408274
0003d0 2f 4f 7f 3a a5 9e ed 3d d1 d4 75 bb 21 c6 1e 3d
       0.00097392773 0.11602525 -0.0037510882 0.03876317
0003e0 b0 e2 80 bc bb e0 4a bc 01 21 80 bb 01 eb 38 3d
       -0.015733093 -0.0123826815 -0.0039101844 0.045145992
0003f0 16 c9 16 3c 82 8e e8 bb 1a 58 ff ba 4f a3 be 3b
       0.009203216 -0.0070970664 -0.0019481212 0.0058178077
